model_save/actor.pth (torch, 19783 bytes, 5 tensors)

fc1.weight f4 [64, 3]
0	0xbedc3ce3	-0.43015203
1	0x3ed909c9	0.42390278
2	0x3eb455fb	0.35221848
3	0xbed42f52	-0.41442353
4	0x3ec1ee9a	0.3787735
5	0x3b87e3e3	0.0041470393
6	0xbd977788	-0.07395846
7	0x3cee0c60	0.029058635
8	0xbc0de5c0	-0.008660734
9	0x3f047adf	0.51749986
10	0x3f1dfa16	0.61709726
11	0xbd9f3931	-0.0777458
12	0x3de53295	0.111912884
13	0x3ee2e5e4	0.44316018
14	0x3f157237	0.58377403
15	0x3edf9b41	0.43673137
16	0x3ec566e7	0.3855507
17	0xbd965277	-0.07339948
18	0x3f1c1911	0.6097575
19	0x3f004a50	0.5011339
20	0xbdce4bbc	-0.10073039
21	0xbe528257	-0.20557533
22	0xbf00c122	-0.502947
23	0x3ebcdab5	0.3688561
24	0x3ecf82dd	0.40529528
25	0x3e97873e	0.2959537
26	0xbe0207bd	-0.12698264
27	0x3e42ff49	0.19042696
28	0x3ed2561e	0.41081327
29	0x3ef3fde3	0.47654638
30	0xbd1c2580	-0.0381217
31	0x3e80efd4	0.25182974
32	0x3d28f0b0	0.041245162
33	0xbd9a5b50	-0.07536948
34	0x3f16b040	0.58862686
35	0x3cc8fbee	0.024534192
36	0xbeeff5c6	-0.46867198
37	0x3e9c8874	0.30572855
38	0x3f073e55	0.52829486
39	0xbe18480e	-0.14871237
40	0xbeef19f9	-0.46699503
41	0x3d0a34fe	0.033741944
42	0xbc315626	-0.010823762
43	0xbca57c1b	-0.02020078
44	0x3e1266cb	0.14297025
45	0xbf201f08	-0.6254735
46	0xbd9dceeb	-0.07705482
47	0xbf178ba5	-0.59197456
48	0x3f10bf61	0.5654202
49	0x3e62245a	0.2208418
50	0xbe8f125a	-0.2794369
51	0xbe58267e	-0.21108434
52	0x3e92d738	0.28679824
53	0xbaa70600	-0.0012742877
54	0xbf1d38a0	-0.6141453
55	0x3deb6b38	0.1149506
56	0x3e8b47f1	0.27203324
57	0xbe859f12	-0.26097924
58	0x3f13bbd3	0.5770847
59	0xbea95aac	-0.3307699
60	0x3f0b2629	0.543551
61	0x3ec632e6	0.38710707
62	0xbeb39ea1	-0.35081962
63	0x3e86cfd4	0.26330435
64	0xbe05af2a	-0.13055101
65	0x3daf7847	0.08567863
66	0xbea09949	-0.31366947
67	0x3eafe27a	0.34352475
68	0xbef6c33b	-0.48195824
69	0x3ef1758e	0.4716
70	0xbe943df5	-0.2895352
71	0xbeecd51f	-0.46256348
72	0xbd8a8878	-0.067643106
73	0x3e6bb88c	0.23019618
74	0x3b183500	0.002322495
75	0x3e9a9424	0.30191147
76	0x3f1f4df7	0.6222834
77	0xbca0949e	-0.019602116
78	0x3e96a96b	0.2942613
79	0x3e64c038	0.2233895
80	0x3e4453c0	0.19172573
81	0xbd4cbe15	-0.049985964
82	0xbf0959c7	-0.53652614
83	0xbf0aa422	-0.54156697
84	0x3d1c4801	0.038154606
85	0x3ebeab77	0.37240192
86	0xbedfbdc0	-0.43699455
87	0xbf079848	-0.5296674
88	0xbf0da35b	-0.55327386
89	0x3e7a4262	0.24439386
90	0xbefb7d92	-0.4911924
91	0xbeeb0d3c	-0.45908535
92	0xbe8f88b3	-0.2803398
93	0xbd6d523e	-0.05793976
94	0x3e028b1a	0.12748376
95	0xbcdc24a5	-0.026872942
96	0x3e49a07c	0.19690126
97	0x3ea8d613	0.32975826
98	0x3ea521f1	0.32252458
99	0x3edc8732	0.43071896
100	0x3e235e59	0.1595396
101	0x3e170a5d	0.14750047
102	0x3eb71a32	0.35762173
103	0xbdc8c5fe	-0.09803389
104	0xbefe7c36	-0.4970414
105	0xbe90561d	-0.281907
106	0x3e01ed68	0.1268822
107	0x3f0f034f	0.55864424
108	0x3f15d8be	0.5853385
109	0xbebcff83	-0.3691369
110	0xbdae77f5	-0.08518974
111	0x3e061c2a	0.13096681
112	0xbc81d56f	-0.015848843
113	0xbe83d575	-0.25748792
114	0xbe73e6d3	-0.23818521
115	0xbeed9cdf	-0.46408746
116	0xbd89658a	-0.0670882
117	0x3dccb62a	0.099956825
118	0x3e29019c	0.1650452
119	0x3cb0f4d6	0.021601122
120	0xbecae492	-0.3962751
121	0xbe22d418	-0.1590122
122	0xbf0bbd14	-0.54585385
123	0xbde95e77	-0.11394971
124	0x3dce0a8c	0.100606054
125	0x3ed59841	0.41717723
126	0xbdef0ec3	-0.116727374
127	0x3e25aa3a	0.16178218
128	0xbea26281	-0.31715778
129	0x3f0414f4	0.5159447
130	0x3f084266	0.53226316
131	0xbe2826e1	-0.16421081
132	0x3e04d056	0.12970099
133	0xbed770e1	-0.42078307
134	0x3e0f1b7c	0.13975328
135	0x3e928c51	0.28622678
136	0xbebeed28	-0.3729031
137	0xbee0387f	-0.43793103
138	0xbe1a6318	-0.15076864
139	0x3e5f3702	0.21798328
140	0xbef9a92f	-0.4876189
141	0x3c3d9ed9	0.011573517
142	0xbf007364	-0.5017607
143	0xbeb2c0bd	-0.34912673
144	0xbeaeaea5	-0.34117618
145	0xbf132659	-0.5748039
146	0xbe943ad0	-0.2895112
147	0xbebfbf9f	-0.37450883
148	0xbc95d703	-0.018291002
149	0x3dddfb0b	0.10838898
150	0xbdf902ba	-0.12158723
151	0x3eddafd1	0.432982
152	0x3e0d8b46	0.1382266
153	0x3bbc0d65	0.0057389014
154	0xbcb21854	-0.021740116
155	0x3f012c93	0.5045864
156	0x3c6c885a	0.014436806
157	0xbe5aafe7	-0.21356164
158	0x3e82a4b0	0.25516272
159	0xbd50d9a4	-0.05098881
160	0xbe933b26	-0.28756064
161	0xbe0b8e42	-0.13628486
162	0x3ef70ab0	0.4825034
163	0xbee2d059	-0.44299582
164	0xbed03ec0	-0.40672874
165	0xbd51d978	-0.051232785
166	0xbef39082	-0.47571188
167	0x3e2e6585	0.17030914
168	0x3e96ccec	0.29453218
169	0xbdad7ecc	-0.0847145
170	0x3d08a0d0	0.033356488
171	0xbdf72166	-0.12066917
172	0x3ed8d77b	0.423519
173	0xbee0c855	-0.4390284
174	0xbe5671e6	-0.20941886
175	0x3db3af8b	0.087737165
176	0xbd3c3d68	-0.045957
177	0xbc2fc2b3	-0.010727572
178	0xbeea563a	-0.4576891
179	0xbda941b9	-0.08264489
180	0xbe2c2713	-0.1681178
181	0x3e8e6856	0.27813977
182	0xbedefa92	-0.43550545
183	0xbee287eb	-0.44244322
184	0xbedb6602	-0.42851263
185	0xbd155cbd	-0.036465395
186	0x3c1144ab	0.008866469
187	0xbec0cb93	-0.37655315
188	0xbe8333ab	-0.25625357
189	0x3cebd439	0.02878772
190	0xbec65f3a	-0.38744527
191	0x3ecfc2d2	0.40578324

fc1.bias f4 [64]
0	0xbe4dceba	-0.20098391
1	0x3e98143c	0.29702938
2	0xbebe8084	-0.37207425
3	0x3e4df4d6	0.20112929
4	0xbee193e5	-0.44058147
5	0x3f20270e	0.6255959
6	0xbeff4f65	-0.4986526
7	0x3f0bd71a	0.54625094
8	0xbe701763	-0.23446421
9	0x3e86ce4a	0.2632926
10	0xbf0836b1	-0.5320845
11	0xba763a23	-0.00093928183
12	0x3eef181f	0.4669809
13	0x3daf0287	0.08545404
14	0x3f06076b	0.5235507
15	0x3ea117d7	0.314635
16	0x3e8404d6	0.2578494
17	0xbed93f08	-0.42430902
18	0xbce6cbae	-0.028173294
19	0x3edbf264	0.42958367
20	0x3f0c2134	0.54738164
21	0x3ef9ec32	0.48813015
22	0xbef7681f	-0.48321626
23	0xbee63a79	-0.44966486
24	0xbeb62e10	-0.35582018
25	0xbde57449	-0.1120382
26	0x3f26a1b8	0.65090513
27	0xbe20d3af	-0.15705751
28	0xbeb93d59	-0.36179617
29	0x3d9be01d	0.076111056
30	0x3ea43ae8	0.32076192
31	0xbe7c1df2	-0.24620798
32	0xbe83a1fd	-0.25709525
33	0x3dd3be22	0.10338999
34	0x3d82b5bc	0.06382319
35	0xbf075fdd	-0.5288065
36	0x3e931c47	0.2873251
37	0x3e83d63c	0.25749385
38	0x3eb090fd	0.34485617
39	0x3ee244ab	0.44193015
40	0xbefd5199	-0.49476317
41	0x3e3187d0	0.17336965
42	0xbe678d6c	-0.22612542
43	0xbe174160	-0.14771032
44	0xbf101f53	-0.56297797
45	0xbe3aa396	-0.18226466
46	0x3e50d590	0.20393968
47	0xbecb7506	-0.3973772
48	0xbeb1607a	-0.34643918
49	0xbf0feae3	-0.56217784
50	0x3d5ae688	0.053442508
51	0xbed64744	-0.41851246
52	0xbedccafe	-0.4312362
53	0xbdaf450a	-0.0855809
54	0x3dffbf8d	0.12487707
55	0xbf04e8d5	-0.51917773
56	0xbf0e3936	-0.55556047
57	0xbe056c37	-0.13029562
58	0xbe12411f	-0.14282654
59	0xbeb5250e	-0.35379833
60	0xbe5214f8	-0.20515811
61	0x3e0e66f8	0.13906467
62	0x3f1c82d6	0.6113714
63	0xbe6fd6ad	-0.23421736

fc2.weight f4 [64, 64]
0	0x3e19db18	0.15024984
1	0x39fa7689	0.0004777203
2	0x3dff89fe	0.12477492
3	0x3e36c4ae	0.17848465
4	0x3df8aa62	0.12141873
5	0xbcc2eedf	-0.023795543
6	0x3e0a9a1e	0.13535354
7	0x3e259dda	0.16173497
8	0x3e143c07	0.14476024
9	0x3e2b82d2	0.16749123
10	0xbd65d5b0	-0.05611199
11	0x3e288c97	0.16459881
12	0x3cc5dbcb	0.024152657
13	0x3dbd9070	0.09256065
14	0x3dcc3ef0	0.09972942
15	0x3d946102	0.07245065
16	0xbcde00ce	-0.027099993
17	0xbdfc2992	-0.123126164
18	0x3dd543ad	0.10413299
19	0x3e15fa4b	0.1464626
20	0xbc9cff0d	-0.019164586
21	0x3dcd93b1	0.100379355
22	0x3ce728ee	0.028217759
23	0x3d5f1bbd	0.054469813
24	0xbd95fc26	-0.07323484
25	0xbba3ca09	-0.0049984497
26	0x3d02f930	0.031975925
27	0x3d257dd4	0.040403202
28	0xbcdcd601	-0.026957514
29	0x3e1b17c4	0.15145785
30	0xba6a8165	-0.0008945673
31	0x3dace6ce	0.0844246
32	0x3e072774	0.13198644
33	0x3d86b323	0.06577136
34	0x3d8aa82b	0.06770357
35	0x3dc6a7ab	0.09699949
36	0x3d594114	0.05304058
37	0x3dbe816b	0.09302028
38	0x3e0b0067	0.13574372
39	0xbcb634b5	-0.02224193
40	0xbd8f0d6d	-0.06984983
41	0xbd8c1b3c	-0.06841132
42	0x3ddba390	0.107245564
43	0x3dfb45c0	0.12269163
44	0x3da2421e	0.07922767
45	0x3da060f5	0.07830993
46	0x3e4cbe0c	0.19994372
47	0x3d425a04	0.047449127
48	0xbd574af7	-0.052561726
49	0x3c506003	0.0127182035
50	0x3e311369	0.1729256
51	0xbddcbd2f	-0.107782714
52	0xbde24367	-0.11048012
53	0x3e14e766	0.14541396
54	0x3e3bee5d	0.18352647
55	0xbd204e36	-0.039137088
56	0x3d1b5010	0.03791815
57	0x3d38b4be	0.045094244
58	0x3d9f88d4	0.0778977
59	0xbd9ed8e8	-0.07756215
60	0xb93eaaa8	-0.00018183386
61	0x3d58e405	0.05295183
62	0x3e31d86b	0.17367713
63	0xbc1f9066	-0.009739017
64	0x3dd4970c	0.103803724
65	0xbce6b12e	-0.028160658
66	0x3dc9fc54	0.09862581
67	0xbe058d0c	-0.13042086
68	0xbd82d30e	-0.06387912
69	0x3cf0c618	0.029391333
70	0xbb858400	-0.0040745735
71	0xbd9522cc	-0.072820276
72	0x3cb29b78	0.021802649
73	0xbbdafa18	-0.0066826455
74	0xbb12a900	-0.0022378564
75	0x3dcd1ec9	0.100156374
76	0xbdb058b9	-0.086106725
77	0xbbc7bc78	-0.0060954653
78	0xba8157bb	-0.0009868065
79	0x3d9aba6f	0.07555091
80	0x3d815382	0.06314756
81	0x3cb73a98	0.022366807
82	0xbcdb521b	-0.02677255
83	0x3dad8e7b	0.084744416
84	0xbdc793da	-0.09744997
85	0x3dd68916	0.10475366
86	0xbcbe73f1	-0.023248645
87	0x3c489f76	0.01224505
88	0xbcacd688	-0.02109839
89	0x3d20b130	0.03923148
90	0x3d5fe2a4	0.0546595
91	0xbd3572ad	-0.044298816
92	0xbd47fd22	-0.04882539
93	0xbddb24b8	-0.10700363
94	0x3dc986f4	0.098401934
95	0xbc523480	-0.0128299
96	0xbd300490	-0.0429731
97	0xbde55024	-0.11196926
98	0xbdc7ae73	-0.097500704
99	0x3c7e2660	0.015512079
100	0xbddc5ad0	-0.107595086
101	0x3d8f87a3	0.070082925
102	0x3c4b7441	0.012417854
103	0xbdf63fc1	-0.12023879
104	0xbc557093	-0.013027328
105	0x3da2c4d1	0.07947696
106	0xbdbb1111	-0.091341145
107	0xbdd22d11	-0.10262502
108	0x3de2c086	0.11071877
109	0x3d415a62	0.047205336
110	0xba784223	-0.00094703044
111	0x3dd90169	0.10595972
112	0x3d60ee28	0.054914623
113	0xbdb0596e	-0.08610807
114	0xbdaf0402	-0.08545686
115	0xbdae0592	-0.08497156
116	0xbdbaa98c	-0.0911437
117	0xbe013c1a	-0.12620583
118	0xbd7c4463	-0.061588656
119	0xbd3bbf24	-0.045836583
120	0xbdd22a1a	-0.102619365
121	0xbd6fa419	-0.058506105
122	0xbde03f3b	-0.1094956
123	0xbba6e70b	-0.0050934604
124	0xbd9b4da4	-0.07583168
125	0x3bdee783	0.0068025007
126	0x3d298e73	0.041395616
127	0xbda5d32e	-0.0809692
128	0xbd9a101f	-0.07522606
129	0xbd2d3c00	-0.04229355
130	0xbd1e6654	-0.038671806
131	0x3cf383fc	0.029726021
132	0x3d635d5d	0.05550896
133	0xbdf37170	-0.11886871
134	0xbcd6448f	-0.026155738
135	0x3d4c7203	0.049913418
136	0x3ce418d3	0.027843868
137	0xbdd1ef09	-0.102506705
138	0x3d96ef06	0.07369809
139	0x3c9cf696	0.01916055
140	0xbc9b29cd	-0.01894083
141	0x3bcc2a3d	0.006230621
142	0x3dbbe73b	0.09174963
143	0xbdf2c260	-0.1185348
144	0x3da4580d	0.08024607
145	0xbc872710	-0.016498119
146	0xbbfc3957	-0.007697265
147	0x3c67d732	0.014150428
148	0xbd0a5d7d	-0.033780564
149	0x3cb557e2	0.022136632
150	0xbdfecde5	-0.12441615
151	0x3df532cd	0.1197258
152	0x3d9fda44	0.07805303
153	0x3c92b645	0.017909179
154	0xbc95a14a	-0.018265385
155	0x3daedd7b	0.08538338
156	0x3be4fa09	0.0069878143
157	0x3df9d61c	0.12199041
158	0x3dd5cddf	0.104396574
159	0x3d7dc2af	0.061953243
160	0x3d4024b0	0.046909988
161	0x3db2e505	0.08735088
162	0x3dd1ddf6	0.10247414
163	0x3de9fce8	0.11425191
164	0xbdf20f5c	-0.11819336
165	0xbda01a1b	-0.07817479
166	0x3c3ef927	0.011656082
167	0xbdcd828b	-0.10034665
168	0x3d8472d4	0.06467214
169	0x3dfa28a4	0.12214783
170	0x3db5a6ca	0.08869703
171	0xbdf35b7a	-0.11882682
172	0x3d365195	0.044511396
173	0xbd9c8c17	-0.076439075
174	0xbd9282b7	-0.07153838
175	0xbdc324c2	-0.09528495
176	0xbdebb694	-0.115094334
177	0xbd711aaf	-0.058863338
178	0xbd42b826	-0.0475389
179	0xbd48fddb	-0.04907022
180	0x3d0ef047	0.034897115
181	0xbdc19865	-0.09452895
182	0x3d7f72a2	0.06236518
183	0xbdb44b6a	-0.088034466
184	0xbc45cf00	-0.012073278
185	0x3de0594e	0.109545335
186	0xbc20852f	-0.009797378
187	0x3df4aa5c	0.11946556
188	0x3deea431	0.11652411
189	0xbd8d3abf	-0.068959706
190	0x3b845e7c	0.0040395837
191	0x3d422d14	0.04740627
192	0xbc3f0bd2	-0.011660533
193	0x3ae50e43	0.0017475564
194	0xbdf91828	-0.121628106
195	0xbd820ff5	-0.063507
196	0x3ddc5c63	0.10759809
197	0x3d504dda	0.050855495
198	0xbd50e690	-0.05100113
199	0xbd94aed0	-0.07259905
200	0xbde44263	-0.11145475
201	0xbda5496c	-0.08070645
202	0xbd92e276	-0.071721
203	0x3dad301d	0.084564425
204	0xbbaf0d33	-0.0053421496
205	0x3d7b552f	0.061360534
206	0xbd23f832	-0.04003162
207	0x3d9c5f80	0.07635403
208	0xbcd9c131	-0.026581379
209	0x3de9317c	0.113863915
210	0xbde5d164	-0.11221579
211	0xbc04d92e	-0.00810842
212	0xbdf3c91f	-0.11903595
213	0x3b8d02b9	0.004303303
214	0xbdb231df	-0.087009184
215	0x3d672cda	0.05643926
216	0x3d09c948	0.033639222
217	0x3db4b45f	0.088234656
218	0x3d02d9ab	0.031945866
219	0xbcccea1e	-0.02501398
220	0x3db37894	0.08763233
221	0x3dbed9d0	0.09318888
222	0x3d37d4fb	0.04488085
223	0x3db992f8	0.09061235
224	0x3c5c893a	0.013460452
225	0x3cd66013	0.026168859
226	0xbd2462e6	-0.04013338
227	0xbd85f4a6	-0.065408036
228	0xbd5d3f37	-0.054015364
229	0xbe08618c	-0.13318461
230	0x3d96de40	0.073666096
231	0x3da134d8	0.07871407
232	0xbd39216e	-0.045197897
233	0x3c8fa98d	0.017536903
234	0xbd87115f	-0.0659511
235	0xbd49aba1	-0.049235944
236	0xbdf3d8df	-0.11906599
237	0xbdda2b77	-0.106528215
238	0xbcc5a72b	-0.024127563
239	0x3de4b9f5	0.11168281
240	0x3d0e06ab	0.034674328
241	0xbcbe26ee	-0.023211922
242	0x3cff75f6	0.031184178
243	0x3da3f86a	0.080063656
244	0x3d34f7b8	0.044181556
245	0x3dbee003	0.093200706
246	0x3d49ace1	0.049237136
247	0xbc6d9982	-0.014501931
248	0x3ab8bb80	0.0014093965
249	0x3c8ecdfd	0.017432207
250	0x3d42bb43	0.047541868
251	0xbc22e785	-0.009942894
252	0xbdf26bd3	-0.11836972
253	0x3ddb351e	0.10703491
254	0xbca86f44	-0.020560868
255	0xbcdc9a1b	-0.026928952

fc2.bias f4 [64]
0	0x3e0091ef	0.12555669
1	0xbe097641	-0.13424017
2	0xbdabc700	-0.083875656
3	0xbdbf97e0	-0.0935514
4	0xbdd05731	-0.101728804
5	0x3e2d9450	0.16951108
6	0xbca8a4a7	-0.020586325
7	0x3db2b34c	0.087256044
8	0x3d51595e	0.051110618
9	0x3e04e640	0.12978458
10	0xba8c5f93	-0.0010709636
11	0xbddee55d	-0.10883591
12	0x3d9c45ba	0.07630487
13	0x3dec0e9c	0.11526224
14	0xbd96528f	-0.073399656
15	0xbd3f318a	-0.046678104
16	0xbe0946bd	-0.13405891
17	0x3d6b9372	0.05751366
18	0xbda63737	-0.08116
19	0x3e2f05a0	0.1709199
20	0x3d37baed	0.044856
21	0xbcf49d43	-0.029860144
22	0x3e0a6b90	0.13517594
23	0x3cf17139	0.029472934
24	0x3c3d0f9c	0.011539366
25	0xbe0003a9	-0.12501396
26	0x3c90e7d7	0.017688675
27	0xbd0ab241	-0.033861402
28	0xbb93e8fa	-0.004513857
29	0x3d99a79b	0.07502671
30	0x3ca3885c	0.019962482
31	0xbdebe4a4	-0.11518219
32	0x3cf17a98	0.029477403
33	0x3d4728e3	0.048622977
34	0xbda1c528	-0.07898933
35	0xbcd85f4b	-0.026412627
36	0x3cda328e	0.026635434
37	0xbdf6a2d4	-0.12042776
38	0xbdb6cc26	-0.08925657
39	0x3d105cbf	0.0352447
40	0xbdb3ca57	-0.08778828
41	0x3d3fce70	0.046827734
42	0xbce98028	-0.028503492
43	0xbde77332	-0.11301269
44	0x3e4a241c	0.19740337
45	0x3cadc1d4	0.021210589
46	0xbd407242	-0.046983965
47	0xbbcc3c6a	-0.006232788
48	0x3de5092f	0.11183392
49	0x3d2aed67	0.04173031
50	0x3cea45b5	0.028597692
51	0xbdd0e670	-0.102002025
52	0xbc608eb9	-0.013705903
53	0x3bb9278c	0.0056504663
54	0x3ca822d6	0.020524424
55	0x3d7e15e9	0.062032614
56	0x3db962d1	0.09052051
57	0x3d832b76	0.06404774
58	0x3e07e673	0.13271503
59	0x3d5a5ebf	0.053313013
60	0xbde08782	-0.10963346
61	0x3e1ccdb2	0.15312842
62	0x3d3dace8	0.046307474
63	0x3dae6f97	0.08517378

fc3.weight f4 [1, 64]
0	0x3d4276be	0.047476523
1	0xbdefdcfd	-0.11712072
2	0xbda15ec5	-0.07879404
3	0xbd82cf09	-0.06387145
4	0xbdeb9e74	-0.11504832
5	0x3db1451f	0.08655762
6	0xbd9fe539	-0.078073926
7	0x3e03cbaa	0.1287066
8	0x3d57f5e9	0.052724753
9	0x3e1df203	0.15424351
10	0x3c2f408d	0.010696542
11	0x3d30f654	0.043203667
12	0x3d92c60a	0.07166679
13	0x3df84914	0.121233135
14	0xbcc360c4	-0.023849852
15	0xbd6eae0c	-0.058271453
16	0xbbf1c2bf	-0.007377952
17	0x3dc00ba9	0.09377224
18	0xbd3ecbb8	-0.046581
19	0x3db1041a	0.086433604
20	0xbd170f9a	-0.036880113
21	0x3d9deb31	0.07710875
22	0x3e2ee59f	0.17079781
23	0x3d9d7759	0.076887794
24	0xbdcd9d84	-0.10039809
25	0xbd0fca3a	-0.035104968
26	0xbd8ade27	-0.067806534
27	0x3e020f76	0.1270121
28	0xbdd54ee6	-0.10415439
29	0x3db6b596	0.089213535
30	0x3e247a8c	0.16062373
31	0xbc5187a0	-0.012788683
32	0xbdee11d4	-0.11624494
33	0x3db5703d	0.088592984
34	0xb870f0f5	-5.7444868e-05
35	0x3dc84e2c	0.09780535
36	0xbd93a522	-0.07209231
37	0xbdf34540	-0.11878443
38	0xbcc4959e	-0.023997124
39	0xbdba90b0	-0.09109628
40	0xbd9d6f78	-0.076872766
41	0x3dcc64dc	0.09980175
42	0x3d9a150a	0.07523544
43	0x3c4be250	0.012444094
44	0x3dad871a	0.08473034
45	0xbd8c452b	-0.0684913
46	0x3dcea534	0.10090104
47	0x3e2266fc	0.15859598
48	0x3e23949d	0.1597466
49	0xbd33886f	-0.043831285
50	0x3dd2394f	0.10264837
51	0xbdb25bac	-0.08708891
52	0xbc9a4364	-0.018830962
53	0xbdda65b2	-0.10663928
54	0xbd64d8c6	-0.055870794
55	0xbd05feec	-0.032713816
56	0x3df3c4b1	0.1190275
57	0x3d9889ea	0.0744818
58	0x3e1d3859	0.15353526
59	0xbd2544e2	-0.040348895
60	0x3a1783b4	0.0005779818
61	0x3da0b405	0.07846836
62	0x3de9a2ca	0.11408003
63	0xbd5d8c92	-0.054089136
