model_save/critic.pth (torch, 20047 bytes, 5 tensors)

fc1.weight f4 [64, 4]
000000 fe 03 a5 be eb 50 e0 be 44 53 83 be 0b a6 79 bc
       -0.32229608 -0.43811736 -0.25649464 -0.015237342
000010 3b 44 5e be 5f ac ab 3e 43 27 c0 3e 0d 86 99 3e
       -0.21705715 0.33529946 0.37529954 0.29985085
000020 08 2f 3b be aa fc 18 be 47 ce 90 be d0 cd d1 3e
       -0.1827966 -0.14940134 -0.28282377 0.40977335
000030 74 39 c2 3e dd 6a d8 3e 07 56 93 3e 66 fe dc 3d
       0.37934458 0.4226903 0.2877657 0.1079071
000040 82 5d eb bd 3a 30 47 be 35 c7 f4 3e 19 98 18 bd
       -0.114924446 -0.1945199 0.47808233 -0.037254427
000050 10 e8 e0 be 5c b5 97 bd b9 1f ad 3e 93 af 16 3c
       -0.4392705 -0.074076384 0.33813265 0.009197134
000060 0b 98 7d be 08 7d a6 be 45 55 1e 3e 92 b4 3e be
       -0.24765031 -0.32517266 0.15462215 -0.1862357
000070 5f 8a c7 be 36 ed cf be fc d5 83 3e a4 bc 17 3d
       -0.38972756 -0.40610665 0.25749195 0.037045136
000080 80 87 ff bd b8 36 32 be 0a 7c 5a be db d8 d3 bc
       -0.124770164 -0.17403686 -0.2133638 -0.02586024
000090 e4 4e 8d bd 61 ca 9b 3e c8 17 00 3f 3b c9 a3 be
       -0.06899813 0.3042784 0.5003629 -0.31989464
0000a0 db 3a 95 3e 5b 86 b6 be af 11 ca be 0e f5 65 bc
       0.29146466 -0.3564938 -0.39466617 -0.014035476
0000b0 3e cd 1f 3e a8 63 f0 3e e2 a3 ed be 29 ca 34 be
       0.15605637 0.46951032 -0.46414095 -0.17655243
0000c0 fb 9f 2d 3d 73 1e 84 3e 0c b4 24 be d1 ea 81 bd
       0.042388897 0.2580448 -0.16084307 -0.06343616
0000d0 1c 61 af be e1 d3 c1 bd af 21 35 be 2e cc db 3e
       -0.34253776 -0.09464241 -0.1768863 0.42929214
0000e0 b4 62 8c 3e d4 d2 20 bc 1b 0f eb be 1f 6e d2 be
       0.27419055 -0.00981589 -0.45909962 -0.4109964
0000f0 2a 55 0f be 5c 04 03 bf 41 a6 29 be 12 fe c5 be
       -0.13997331 -0.51178527 -0.16567327 -0.38670403
000100 31 6e b4 3e 06 69 6e be af ec cb 3d 97 8a 24 3e
       0.3524032 -0.23282251 0.09957253 0.16068493
000110 75 87 9c bd 6f 4c 55 bd c9 12 9a 3d 6e de 05 bf
       -0.07643024 -0.052074846 0.07523114 -0.52292526
000120 6b c5 e9 be 52 a0 e6 be a8 e3 a4 3d f6 cb e8 3e
       -0.4565843 -0.4504419 0.080512345 0.4546811
000130 91 f8 be bd e5 b9 be be 57 58 10 be da 75 bb 3e
       -0.09324754 -0.372512 -0.14096199 0.3661335
000140 34 7a 65 3e 69 46 8d be 0f 0e ce 3e eb 4e 94 be
       0.22409898 -0.2759278 0.402451 -0.2896646
000150 86 17 67 be 17 1e 5b 3e 53 0e be bd 19 10 9f 3c
       -0.22567567 0.21398197 -0.09280076 0.019416856
000160 96 b1 a8 bd 6a 00 02 3f 58 fd ae bd 88 cb 6f be
       -0.08236997 0.5078188 -0.08544415 -0.23417485
000170 39 fc c3 3e 43 5c 09 bf e4 53 d7 3d 94 72 d7 3d
       0.38278368 -0.53656405 0.10514048 0.10519901
000180 65 07 a8 3e 99 13 38 3e c1 2b b2 3d 61 3d d4 3e
       0.32818142 0.17976226 0.08699752 0.41453078
000190 1d fd 9d be b0 e4 aa be 3f 39 c4 be 74 47 9b be
       -0.30857173 -0.333776 -0.38324925 -0.30327952
0001a0 4a 44 99 be f5 b0 00 3f 01 6d 4b 3e 89 83 c2 3c
       -0.29934913 0.50270015 0.198658 0.023744361
0001b0 8d 7d e8 bd db e7 9b bd cd 5c 79 be c5 7c 90 be
       -0.11352072 -0.07612582 -0.24351807 -0.28220192
0001c0 2e 15 2e bd e0 db 8e 3e 3f d6 c8 be d9 0e e4 be
       -0.042500667 0.27902126 -0.39225957 -0.44542578
0001d0 13 c2 72 be fc 9b a1 3d f8 26 4a be 24 05 d8 bd
       -0.23706846 0.0789108 -0.19741428 -0.105478555
0001e0 69 8e 9c 3e 56 44 b1 be 78 38 af bd a4 f0 e6 be
       0.305774 -0.3462245 -0.085556924 -0.4510547
0001f0 77 9c 21 3e 78 04 8d 3c b0 80 b6 3e 7d f1 35 be
       0.15782343 0.017214045 0.35645056 -0.17767902
000200 9a 5c 74 be 71 6a 0c 3e e3 be ea be 36 d2 b0 be
       -0.2386345 0.13712479 -0.4584876 -0.34535378
000210 de 36 19 bf 85 48 b2 be 01 3c 80 be 84 fd b6 3d
       -0.59849346 -0.34820953 -0.2504578 0.08935073
000220 ad b9 86 be 55 dc 95 be 45 62 e9 3d cd 22 ff 3e
       -0.26313534 -0.29269662 0.113956966 0.49831238
000230 64 28 92 3e 94 bc a0 3e 45 09 a1 be 57 7b 95 be
       0.2854644 0.31393874 -0.31452385 -0.29195663
000240 23 bc 49 3e 7b 41 18 bf 2e a8 b4 be a3 e0 a8 3d
       0.19700675 -0.59474915 -0.3528456 0.08245971
000250 37 4a b5 3c 0d 48 db be cc 12 9d 3e f9 a5 37 be
       0.022130115 -0.42828408 0.30678403 -0.17934407
000260 23 88 d8 be 70 85 a8 3e a9 9d b9 3e ce 9d 80 be
       -0.42291364 0.32914305 0.36253098 -0.25120395
000270 40 f4 c3 be 7b 5e 79 be 25 2f 05 3f 44 12 67 be
       -0.38272285 -0.24352448 0.5202506 -0.22565562
000280 d1 65 2f be 9d c8 e1 be 73 9e e8 be 36 b2 ad 3e
       -0.17128684 -0.44098368 -0.45433387 0.33925027
000290 95 a5 d2 be 56 22 6e bd d7 9e 97 3d c9 62 b8 be
       -0.41141954 -0.058138214 0.07403343 -0.36012867
0002a0 db f5 7e be 58 fc 11 3e 6c 3d 00 3f 36 83 cd 3d
       -0.24898474 0.14256418 0.5009372 0.10034792
0002b0 e2 02 d7 be 74 2b a6 be b4 9b 04 3f ad e7 d4 be
       -0.41994387 -0.32455027 0.51800084 -0.41583005
0002c0 6d fe c5 3d 1a b5 c6 be a0 9e 67 3c 3a 30 ea be
       0.096676685 -0.38810045 0.01413694 -0.4573992
0002d0 25 20 dc 3e 1e 2b e4 be de 95 9b be ae dd 93 3d
       0.42993274 -0.44564146 -0.30387777 0.072200164
0002e0 ad 1c 42 3d 38 17 cf 3e b1 f5 d2 be f8 58 50 3e
       0.04739063 0.40447402 -0.41203073 0.20346439
0002f0 33 f5 0f 3d 7f 0f 82 bd a4 96 ea 3e 9a 4a 1b 3e
       0.03514595 -0.06350612 0.45818055 0.15165177
000300 2b ed 1d 3d 41 76 8a bd 14 bd b3 3e f9 62 17 3e
       0.03855626 -0.067608364 0.35105193 0.14783849
000310 1a 70 48 3e ad 10 b4 3d cd d5 8e be a5 68 6c 3e
       0.19574013 0.08792243 -0.27897492 0.23086794
000320 f0 da af 3e 3d 28 b7 3c 52 b3 0f 3e 4d 9c d5 be
       0.34346724 0.022358054 0.14033249 -0.4172081
000330 a4 64 cb 3e 99 3c 34 be 53 ce 05 3e 8f 98 e5 be
       0.3972522 -0.17601241 0.13066988 -0.44842955
000340 5d 50 f5 bd e9 5b be 3e 90 97 8d 3d 32 62 25 bd
       -0.11978219 0.37179497 0.06913674 -0.04037685
000350 dc 9d de be 0e 64 d5 3e f7 30 6e be 84 fc 8e 3c
       -0.43479812 0.41677898 -0.23260866 0.017454393
000360 09 be 21 be f6 d7 6b 3d 20 ff 8e be 1f 08 06 3f
       -0.15795149 0.057579003 -0.2792902 0.5235614
000370 bb 1c cb 3e 39 7f fc be 72 3f 42 3e a7 75 11 3e
       0.39670357 -0.49315813 0.18969515 0.14205037
000380 9f 87 e9 be c2 00 64 be ba 1f 27 3e 8d d1 27 bd
       -0.45611283 -0.22265914 0.16320696 -0.040971328
000390 e4 06 27 be 98 36 95 3e 61 73 4d 3d 8c 03 85 3e
       -0.16311222 0.29143214 0.050158862 0.2597927
0003a0 d9 81 ef be 12 a4 02 bf a6 be 9d 3e a2 e7 17 3e
       -0.46778753 -0.510316 0.30809516 0.14834455
0003b0 46 99 91 3e db 2a 08 3f 9f 4e 50 be 10 aa c1 3e
       0.2843725 0.5319039 -0.20342492 0.3782506
0003c0 65 dc bd 3e 9a 49 8d 3e 9b 15 ff be ae 47 72 3e
       0.3708221 0.27595216 -0.4982117 0.23660156
0003d0 a7 38 2e be b4 e4 48 3e 8a 51 fe 3d e5 fd 96 3e
       -0.17013799 0.19618493 0.12417896 0.2949058
0003e0 90 4b df be 0b bf bf 3e 84 28 ec be db 84 06 bf
       -0.43612337 0.37450442 -0.4612466 -0.5254647
0003f0 54 fd ae be 33 a1 b8 be 2d db 5e be 43 66 b8 3e
       -0.3417765 -0.36060485 -0.21763296 0.3601552

fc1.bias f4 [64]
000000 d8 8d a3 3e 58 b5 94 bd c0 d2 0e 3e 59 45 3e 3e
       0.31944156 -0.07261151 0.13947582 0.18581142
000010 fa 84 79 be 78 19 07 3f 7e 54 31 3e 63 49 76 3e
       -0.24367133 0.5277324 0.17317387 0.24051432
000020 6a 55 eb 3e ee 51 2a 3e 64 b8 f1 be eb 02 55 be
       0.45963603 0.16632816 -0.4721099 -0.20801894
000030 0e b3 c7 be 2d f0 e2 3d 5c 34 28 bd 48 ea 85 be
       -0.39003795 0.11080966 -0.04106556 -0.26155305
000040 09 e6 e2 3e f9 9a bb bd b0 19 c8 be 5d bc e5 3e
       0.44316128 -0.09160418 -0.39082098 0.44870272
000050 87 a8 98 3e 85 9c 9a 3e e5 7b 0c 3f 62 57 87 bd
       0.29816076 0.3019754 0.5487655 -0.06608464
000060 b9 b5 ad 3e 0a 40 b6 be 51 e1 44 bd 72 7b 89 be
       0.33927706 -0.35595733 -0.04806644 -0.26851994
000070 f8 22 a8 bd 38 3d e6 3e 30 f2 b4 3e 74 fe e7 3d
       -0.08209795 0.4496858 0.35341024 0.1132783
000080 13 27 98 be 3e 6d 54 be 32 f1 0a 3e f5 39 57 3e
       -0.2971731 -0.20744798 0.13568571 0.21018203
000090 28 ef ac 3b c1 1e 57 3d 36 b6 d2 be 8b 6e a5 bd
       0.005277533 0.052519564 -0.4115464 -0.08077725
0000a0 e8 83 a1 be 8b a6 91 3d 70 05 a6 3e f2 dd d0 3d
       -0.3154595 0.07111844 0.32426023 0.10198583
0000b0 35 55 ee 3c 65 d5 d2 3c 8f 50 c8 3e 93 56 d0 be
       0.029093364 0.02573652 0.3912396 -0.4069105
0000c0 93 46 b5 3e 24 2c 3f 3d 66 bd a6 bd de 4c 5c bc
       0.35405406 0.046672955 -0.08141594 -0.013446061
0000d0 8d a9 df be 5d 48 36 be c5 c8 ea 3d 8e c9 7a be
       -0.43684044 -0.17801042 0.11464075 -0.2449095
0000e0 04 ec 77 be be f6 bf 3e e0 13 07 be e7 2e 4d 3d
       -0.24211127 0.37492937 -0.13191175 0.050093558
0000f0 d3 16 c3 bd 4f fb 6f 3e d1 0a f5 bd 2e 3e 81 be
       -0.09525838 0.2343571 -0.11964954 -0.25242752

fc2.weight f4 [64, 64]
000000 ae 04 11 be a7 a3 09 be 47 0f e5 bd 4c 2b a6 bb
       -0.14161941 -0.13441335 -0.111845545 -0.0050710794
000010 44 05 11 bc 94 58 1f 3d 2c 29 5a 3d b6 ba a9 bd
       -0.008851353 0.038902834 0.05326192 -0.082875654
000020 f8 f6 14 bd c1 82 28 bc 74 ae 1e 3d aa 39 fb bd
       -0.03636834 -0.01028508 0.03874059 -0.12266858
000030 f8 2a e9 bd 4d 7d 9f 3d 44 ee 30 3d 97 3d 63 bd
       -0.11385149 0.07787571 0.043195978 -0.05547866
000040 6a 1d 0a 3d 7b 7a 36 3c 69 87 8d bd 36 0f 70 bd
       0.033719458 0.0111376 -0.06910593 -0.058608256
000050 80 d1 11 bd f5 fa c1 bc d3 64 77 3c e4 f8 30 bd
       -0.035600185 -0.023679236 0.015099722 -0.04320611
000060 d4 f9 18 be ac 1b 96 3d 05 6f 33 3c e8 56 a7 3d
       -0.14939052 0.07329497 0.010951762 0.08170873
000070 ae 0f d6 bd ef 61 7d 3d 9a 17 07 be b6 93 b9 bd
       -0.104522094 0.061860975 -0.13192597 -0.09061377
000080 c6 3e c9 bd e0 82 0c bd 7f be 7a 3d e6 db a1 bd
       -0.09826426 -0.0343045 0.061216827 -0.079032704
000090 82 f3 09 3d ea 70 82 3d 13 af dc 3c 02 c9 c6 bd
       0.033679493 0.06369193 0.02693895 -0.09706308
0000a0 16 7f 08 be 94 bc ea bd b0 4a af 3d f3 c1 30 bd
       -0.1332973 -0.1146175 0.085591674 -0.043153714
0000b0 21 d7 a7 bd 70 0a 5f bd 0e c9 aa bd 41 d1 51 bd
       -0.081953295 -0.054453313 -0.083391294 -0.05122495
0000c0 c7 c2 8d 3d 06 fc 6f 3d b5 fb 6a bd 23 8b 32 3d
       0.069219165 0.058589958 -0.057368953 0.043589722
0000d0 ae 7d 0e bc 12 78 0b 3d 00 ba 00 3b 17 e0 71 bd
       -0.008696957 0.034050055 0.0019642115 -0.0590516
0000e0 d5 7d 8b bc 24 4a a6 bd 8d 07 b8 3d 1b c7 2a bd
       -0.017027775 -0.0811961 0.08985815 -0.041693788
0000f0 d3 f9 d9 bd 18 2a 8e 3d 48 a0 8d 3d 4f 1b fc 3c
       -0.10643353 0.069416225 0.06915337 0.03077474
000100 6f 31 c2 3d 10 62 d5 bc 0f 9a a3 3c c1 35 df bd
       0.09482085 -0.026047736 0.019970922 -0.108989246
000110 3c 17 75 3d 7a 1b 84 bd e4 74 d6 bd 87 28 96 bd
       0.05983661 -0.06450553 -0.10471514 -0.07331949
000120 4a f3 42 3d 00 ca e3 3a 1d 1c 0a be f4 8d 4f bc
       0.0475953 0.0017378926 -0.13487287 -0.012668122
000130 c4 31 1f bd d3 7e f2 bb 91 ac 8a bd 10 5b 15 be
       -0.03886582 -0.0074003725 -0.06771196 -0.14585519
000140 6c 9e 9d bd 60 10 46 3d bc fd 82 bc 0b 18 3a 3d
       -0.07696232 0.04835546 -0.01599013 0.045433085
000150 e7 88 d7 bd 76 66 68 3d 94 a4 d1 bd 3a 9d e7 bd
       -0.10524159 0.05673834 -0.10236469 -0.113092855
000160 99 ff 62 3c 34 50 f8 bd be 57 f9 bc f5 99 91 3d
       0.013854885 -0.121246725 -0.030437347 0.07109443
000170 1a b5 b3 bd 40 06 60 3c 32 a9 d9 bd c4 25 c1 bd
       -0.08774777 0.013673365 -0.106279746 -0.09431031
000180 30 b6 0f 3d ca 11 fa bd ef 28 a1 3d 78 fa 31 3d
       0.035085857 -0.12210424 0.078691356 0.043451756
000190 b2 c6 11 3d 19 ff 54 3c bc 7a 1b bd dd 9e 44 bc
       0.03558988 0.013000273 -0.037958845 -0.012000767
0001a0 98 21 e1 bd de ad c6 bd a7 f5 b2 bd cf a1 0c bc
       -0.109927356 -0.09701131 -0.08738261 -0.0085835
0001b0 e8 5f 8c 3c 56 83 ba 3c 17 f2 0f bd 50 50 07 bc
       0.017135575 0.022767704 -0.035142984 -0.008258894
0001c0 bb 6a af 3c ae 67 20 3d 5f d5 a1 bd 21 e3 61 bd
       0.021413198 0.039161377 -0.079020254 -0.055148248
0001d0 00 bb 78 3b b3 77 8a 3d 08 af 28 bd c1 4c 59 bd
       0.0037953258 0.06761112 -0.041182548 -0.053051714
0001e0 00 bb 7f bd f6 53 f1 3a 5c 65 e1 bd 0b 73 66 3d
       -0.062434196 0.0018411863 -0.11005661 0.056262057
0001f0 1b 70 a5 bd c5 1b 01 be 90 ea bd 3d 5d cc ce 3c
       -0.08078023 -0.1260825 0.09273255 0.025243932
000200 08 f5 4e bc 56 58 09 bd ad 53 42 3d 03 84 a1 bd
       -0.012631662 -0.03353151 0.04744308 -0.07886507
000210 64 e3 94 3d 7e 28 10 be cf 1b 82 3d 86 38 83 bd
       0.07269934 -0.14077947 0.0635296 -0.06407265
000220 5b af 23 be 5f 3e a3 bd 14 a5 c5 bd 7d 37 b5 bd
       -0.15984862 -0.07970881 -0.09650627 -0.08848474
000230 fc 0b d8 bc 02 74 70 bd 38 33 10 3b c6 3e 15 bc
       -0.026372902 -0.058704384 0.0022003185 -0.009109205
000240 67 3c 25 3d ce 2e b1 bd d9 06 79 bd 18 73 f5 bb
       0.040340807 -0.086515054 -0.060797546 -0.007490527
000250 0a 73 8a 3d d2 7e 17 bd 0b c9 2f bd 36 56 c5 bd
       0.06760223 -0.03698618 -0.04291634 -0.09635584
000260 8e 76 3f 3c 28 de 0f bc 24 8b dd bd 83 62 fb bd
       0.0116859805 -0.0087809935 -0.108175546 -0.12274649
000270 07 cb 9b bb 0b c7 97 3c 13 9b d1 b8 c1 80 6a 3d
       -0.0047544274 0.018527528 -9.9947814e-05 0.057251696
000280 02 d3 13 be 85 38 30 be 0c 57 f9 bd 00 72 21 3d
       -0.14435962 -0.1720906 -0.12174806 0.03941536
000290 a2 47 04 be 7e 71 d0 3c 0e 90 b7 bd de 49 f6 3c
       -0.12917951 0.025444742 -0.08963023 0.03006452
0002a0 19 e8 9b 3c 6f 8b 59 3d 63 1f 74 bc 6f 94 9f bd
       0.019031571 0.05311149 -0.014900061 -0.07791983
0002b0 36 fe 92 3d bf d8 ae 3d 15 6e 86 bd 63 b7 c9 3d
       0.07177393 0.08537435 -0.06563965 0.09849431
0002c0 dd 2e ca bc cb 06 0c bd 36 53 49 bd fc 0b bc 3c
       -0.02468055 -0.034186166 -0.04915162 0.022954933
0002d0 3a b0 0b 3d 10 5d 93 bd 8f 62 55 3c 0e 72 ce b9
       0.03410361 -0.07195485 0.0130239865 -0.0003937636
0002e0 c6 27 89 bd ec 16 82 3d 05 4f 9d bb 20 4a bf bd
       -0.06697039 0.06352028 -0.0048006796 -0.0934031
0002f0 12 4a 30 be 47 40 17 bd 66 f5 04 bd aa d7 18 3d
       -0.17215756 -0.036926534 -0.032460593 0.03731505
000300 b6 db 7a 3d 1d 2e 14 3d 64 bc 4d 3d 2b 4a 07 bc
       0.06124469 0.03617679 0.05022849 -0.008257429
000310 0c a8 04 3d 71 8f 38 3d 2c ae e9 bd 73 0c d0 bd
       0.032386824 0.04505867 -0.11410174 -0.101586245
000320 6f e1 1c ba 17 d5 00 be 60 5d 5d bd 80 ce e2 bd
       -0.000598452 -0.12581287 -0.054044127 -0.11074543
000330 e0 9a ba bd 79 a6 9e bd b0 9a 08 bc 95 2e d6 bd
       -0.09111571 -0.07746596 -0.008337662 -0.104581036
000340 e2 aa 81 3d 4d ed 86 3d 7a 6c 46 bc 3e d8 4a bd
       0.063314214 0.0658823 -0.012110824 -0.04952263
000350 c2 60 67 3d 86 22 e0 3d 43 10 b4 bc 06 e1 c6 3d
       0.05648876 0.10944085 -0.02198041 0.097108886
000360 88 f7 b7 bd 1e de 8b 3d 59 bd dd 3d e0 3c e7 3c
       -0.0898276 0.06829475 0.10827131 0.02822727
000370 3d ad 39 3c 9f 3d 81 bd 98 61 9b 3d 0b 00 af bd
       0.011332807 -0.063105814 0.07586974 -0.0854493
000380 e4 c4 e5 bd 0a be 80 bd c2 a1 87 bd 39 c3 ed bc
       -0.112191945 -0.06286247 -0.0662265 -0.029023753
000390 0a 4e bf bd 73 18 d9 bc be f3 04 be f0 64 7b 3a
       -0.09341057 -0.026500916 -0.12983605 0.0009589931
0003a0 37 2c b8 3c 4a bd f7 bc 66 c5 67 bd 7d 51 ae 3d
       0.02248202 -0.030241627 -0.05658474 0.085116364
0003b0 a6 e6 1a 3d a7 c6 f7 bd 87 3e 78 3d 88 ac 4c 3d
       0.03781762 -0.12098437 0.060606506 0.049969226
0003c0 a5 24 c3 3d 87 c3 0b be 11 8e 92 3d 06 bd 43 3d
       0.09528474 -0.13648807 0.07156003 0.04778769
0003d0 10 8f ea bc cd 35 16 3d bc 19 04 bd 91 48 b4 bd
       -0.02863267 0.036672402 -0.032251105 -0.088029034
0003e0 7d 33 1c bd 0a 68 14 bd 61 8f 29 bd 4b 68 e1 bd
       -0.03813504 -0.036232032 -0.041396502 -0.110062204
0003f0 d7 96 13 3d c7 7e f8 bc dc 20 1d bd 18 d9 2e bc
       0.036032524 -0.03033389 -0.038361415 -0.010671876

fc2.bias f4 [64]
000000 d1 1c 90 3c 6d 42 53 bd 1c 55 a8 bd 04 f0 33 bd
       0.017591866 -0.05157702 -0.08219358 -0.04393007
000010 56 47 4e bd ee 5b ba bd 62 cb 99 3d 8f 87 f2 3c
       -0.050361 -0.090995654 0.07509495 0.029605655
000020 35 4d ba bd e7 f1 cf bb 63 59 9e 3d 40 c1 e7 bc
       -0.09096757 -0.0063459757 0.07731893 -0.028290391
000030 27 a9 99 3d 22 bb 8a 3d c1 db cb 3c 19 71 59 3d
       0.075029664 0.06773974 0.02488506 0.053086374
000040 97 74 05 be 40 b6 db bd b0 0b 65 bd 2b 38 b3 3d
       -0.13032757 -0.10728121 -0.05591935 0.087509476
000050 a4 64 14 be 66 77 aa 3b 34 03 ae 3d 7d ed 03 be
       -0.14491516 0.0052022217 0.08496705 -0.12883563
000060 7c 15 0c 3d 08 a3 23 3d 24 1b ac bd ca 6a d2 bd
       0.034200177 0.0399504 -0.08403614 -0.10274275
000070 d9 13 6e bd b6 79 57 bd 65 3d cc bd 62 60 78 bd
       -0.058124397 -0.052606307 -0.099726476 -0.060638793
000080 80 71 c8 bd d6 6d 64 3b 71 ca 01 be 93 f5 84 bc
       -0.097872734 0.0034855506 -0.12674882 -0.01623038
000090 7c 9e 81 3d 76 af 3d 3d 64 6d c9 bc fc 25 39 3d
       0.063290566 0.04630991 -0.024588294 0.04520224
0000a0 32 37 3c bd ba 10 d9 bd 02 b1 c1 3d 90 cc 7f bd
       -0.045951076 -0.105988935 0.0945759 -0.062450945
0000b0 a2 b5 b4 bd 95 c1 fa bd be d7 83 bd d8 ca 9c 3d
       -0.08823706 -0.12243954 -0.06437634 0.07655877
0000c0 4e c3 db 3a c5 eb a9 bc e3 af b4 bd 0a be b7 bd
       0.0016766579 -0.020742306 -0.0882261 -0.08971794
0000d0 aa 3b a1 3d 49 ec 8e 3c 90 83 3c 3d 6e 26 0c be
       0.07872708 0.017446654 0.046023905 -0.13686535
0000e0 cb d6 ee bd 13 f9 83 3d ae 32 d5 3b e8 09 e4 3c
       -0.11662062 0.064439915 0.0065062856 0.027836755
0000f0 db 12 24 3d a0 87 5c bd 85 d5 d0 bc e2 fa 23 be
       0.040057044 -0.05384028 -0.025492439 -0.16013673

fc3.weight f4 [1, 64]
000000 68 43 d2 3c b4 8e 1b bd 4c 80 02 bd 20 9f 73 bc
       0.025666907 -0.03797789 -0.031860635 -0.014869481
000010 5a 5d d0 bd 56 db 81 3d e0 68 d0 bd c2 2d f0 bd
       -0.101740554 0.06340663 -0.10176253 -0.117274776
000020 ca 24 f2 bd 28 a0 b5 3d dc 34 12 3d 64 54 7d 3d
       -0.11823423 0.08868438 0.035694942 0.06184806
000030 cc bc c6 3d 52 88 8e 3d 46 25 fd 3d 48 1a a4 3c
       0.09703979 0.06959595 0.12360625 0.020032063
000040 70 df 09 3c e0 1e df bd b8 a9 1e bd 9a 97 f7 3d
       0.008415088 -0.10894561 -0.038736075 0.120894626
000050 ce a0 ca bd 8c 39 5c bd 14 74 c8 3d b6 50 f9 3d
       -0.09893952 -0.05376582 0.09787765 0.121735975
000060 8e cd e3 3d 78 45 f0 bd f8 b1 22 3d 8e 3e c3 bd
       0.11123191 -0.11732 0.039720505 -0.09533416
000070 2e 8e ed bd 5a 06 c3 3d 58 ea e9 bc 82 4d ac 3d
       -0.11599384 0.09522696 -0.028554127 0.08413221
000080 8e 72 a6 bd 6c cd c4 bd 08 2b 08 3d ee 2b a4 3d
       -0.08127318 -0.096094936 0.033244163 0.080161914
000090 14 80 5b 3d 1c 9e 00 bd 3a e0 c9 bd ec b5 44 3d
       0.05358894 -0.031400785 -0.09857221 0.048025057
0000a0 00 7f f9 3c 96 84 9f bd c4 9a ae bd dc 94 39 3d
       0.030456066 -0.07788961 -0.08525613 0.04530798
0000b0 d2 d3 c7 bd 18 1f c8 bd b0 f9 35 bd 14 78 01 3d
       -0.097571984 -0.09771556 -0.044427574 0.031608656
0000c0 d8 a3 ef bc fc af 79 3d 24 20 2d bd 60 96 cc bd
       -0.029252931 0.060958847 -0.04226698 -0.09989619
0000d0 48 86 9f bc 00 fa 0d bc 00 ad 29 3a 2c 63 50 3d
       -0.01947321 -0.008665562 0.00064726174 0.050875828
0000e0 aa cb d1 3d d8 15 e6 bc 06 79 bc 3d cc 85 89 bd
       0.10243924 -0.028086588 0.09202771 -0.06714973
0000f0 a4 cd bb 3d 00 e9 bb bd f0 ec 26 bd 40 4b 50 3c
       0.09170082 -0.091753006 -0.040753305 0.0127132535
